nohup: ignoring input
Random Seed:  2048
cuda:0  will be used.

Generator(
  (gen): Sequential(
    (0): Linear(in_features=260, out_features=256, bias=True)
    (1): ReLU(inplace=True)
    (2): Linear(in_features=256, out_features=256, bias=True)
    (3): ReLU(inplace=True)
    (4): Linear(in_features=256, out_features=1000, bias=True)
    (5): Tanh()
  )
)
Discriminator(
  (dis): Sequential(
    (0): Linear(in_features=1000, out_features=256, bias=True)
    (1): LeakyReLU(negative_slope=0.2)
    (2): Linear(in_features=256, out_features=256, bias=True)
    (3): LeakyReLU(negative_slope=0.2)
    (4): Linear(in_features=256, out_features=128, bias=True)
    (5): Sigmoid()
  )
)
DHead(
  (dis): Linear(in_features=128, out_features=1, bias=True)
)
QHead(
  (disc): Linear(in_features=128, out_features=4, bias=True)
  (mu): Linear(in_features=128, out_features=8, bias=True)
  (var): Linear(in_features=128, out_features=8, bias=True)
)
-------------------------
Starting Training Loop...

Epochs: 100
Dataset: TEXBAT
Batch Size: 128
Length of Data Loader: 2953
-------------------------
[1/100][100/2953]	Loss_D: 1.6159	Loss_G: 2.0046
[1/100][200/2953]	Loss_D: 1.5544	Loss_G: 2.0289
[1/100][300/2953]	Loss_D: 1.5177	Loss_G: 2.0464
[1/100][400/2953]	Loss_D: 1.4910	Loss_G: 2.0691
[1/100][500/2953]	Loss_D: 1.4704	Loss_G: 2.0747
…
