nohup: ignoring input
Random Seed:  2048
cuda:0  will be used.

Generator(
  (gen): Sequential(
    (0): Linear(in_features=259, out_features=256, bias=True)
    (1): ReLU(inplace=True)
    (2): Linear(in_features=256, out_features=256, bias=True)
    (3): ReLU(inplace=True)
    (4): Linear(in_features=256, out_features=1024, bias=True)
    (5): Tanh()
  )
)
Discriminator(
  (dis): Sequential(
    (0): Linear(in_features=1024, out_features=512, bias=True)
    (1): LeakyReLU(negative_slope=0.2)
    (2): Linear(in_features=512, out_features=256, bias=True)
    (3): LeakyReLU(negative_slope=0.2)
    (4): Linear(in_features=256, out_features=256, bias=True)
    (5): LeakyReLU(negative_slope=0.2)
    (6): Linear(in_features=256, out_features=128, bias=True)
    (7): Sigmoid()
  )
)
DHead(
  (dis): Linear(in_features=128, out_features=1, bias=True)
)
QHead(
  (disc): Linear(in_features=128, out_features=4, bias=True)
  (mu): Linear(in_features=128, out_features=8, bias=True)
  (var): Linear(in_features=128, out_features=8, bias=True)
)
-------------------------
Starting Training Loop...

Epochs: 100
Dataset: TEXBAT
Batch Size: 128
Length of Data Loader: 1230
-------------------------
[1/100][100/1230]	Loss_D: 0.7618	Loss_G: 2.8169
[1/100][200/1230]	Loss_D: 0.0611	Loss_G: 4.5604
[1/100][300/1230]	Loss_D: -0.1660	Loss_G: 4.9270
[1/100][400/1230]	Loss_D: -0.8237	Loss_G: 4.8712
[1/100][500/1230]	Loss_D: -0.2123	Loss_G: 2.4725
…
